saved_parameters.pt (torch, 3023 bytes, 8 tensors)

fc1.weight f4 [8, 4]
-0.28269467 0.24398723 5.4410543 0.9197583 0.4179473 -0.30539525 -4.4670887 -0.7831392
0.177976 -0.53979695 -4.077066 -0.75342894 0.23480546 -0.34943348 -5.0272894 -0.9541033
-0.019587627 0.2721393 0.03445513 0.2697252 -0.77725875 -0.7743419 0.17483914 -0.33218268
0.121699244 -0.30186248 -2.2180917 -0.90364134 -1.4415872 -0.11948007 2.441827 0.2176371
00000000: 5bbd 90be cad7 793e 1e1d ae40 4875 6b3f
00000010: 30fd d53e c45c 9cbe 64f2 8ec0 d07b 48bf
00000020: 573f 363e 2230 0abf 5377 82c0 b8e0 40bf
00000030: d870 703e f2e8 b2be 8edf a0c0 1d40 74bf
00000040: 3b76 a0bc d855 8b3e d320 0d3d 6c19 8a3e
00000050: 6efa 46bf 453b 46bf 0809 333e d913 aabe
00000060: 743d f93d b88d 9abe 37f5 0dc0 0a55 67bf
00000070: ee85 b8bf f8b1 f4bd e546 1c40 43dc 5e3e

fc1.bias f4 [8]
-1.2086675 -0.9157451 -0.65008575 -1.1167722 1.8758421 2.132388 1.9340695 -0.19797567
00000000: 9eb5 9abf 456e 6abf 056c 26bf 64f2 8ebf
00000010: 981b f03f 0c79 0840 978f f73f 22ba 4abe

fc2.weight f4 [8, 8]
-4.8319488 -1.892171 -2.3000648 -4.1624675 1.8751085 2.397113 2.1323712 -0.8522203
-4.898046 0.061106887 1.0666846 2.709831 0.1763043 0.64189845 0.11297628 -0.60953754
-3.4774222 -1.6062902 -1.5308741 -3.1242573 1.2374407 1.0309422 0.7526017 -0.6564234
5.1633234 -1.4695334 -0.30655944 -9.658746 0.74766654 0.5154151 0.45449919 0.29143986
5.8931985 2.879902 3.5966456 5.389534 0.2199169 -0.557109 -1.0029306 1.1075542
-3.65702 -2.0122044 -1.1900456 -3.9028172 1.529285 1.5740716 0.46635264 -1.0315256
-0.46686912 2.2454822 2.1740425 1.6482213 -0.26488963 -0.6954485 0.7132229 2.026711
4.5049515 4.036468 2.2883897 3.94747 0.23285466 -0.44216734 0.22348255 1.6008208
00000000: 539f 9ac0 a932 f2bf 4334 13c0 ef32 85c0
00000010: 8e03 f03f 4d6a 1940 c578 0840 1c2b 5abf
00000020: cbbc 9cc0 374b 7a3d 1f89 883f df6d 2d40
00000030: 1d89 343e 7553 243f 1c60 e73d a70a 1cbf
00000040: 168e 5ec0 eb9a cdbf aff3 c3bf d5f3 47c0
00000050: 7564 9e3f eaf5 833f 81aa 403f 5d0b 28bf
00000060: f239 a540 ac19 bcbf 5cf5 9cbe 398a 1ac1
00000070: 1367 3f3f 3ef2 033f 1eb4 e83e 9b37 953e
00000080: 1595 bc40 5050 3840 712f 6640 1077 ac40
00000090: e531 613e b29e 0ebf 0860 80bf 56c4 8d3f
000000a0: 9e0c 6ac0 f5c7 00c0 6a53 98bf c2c7 79c0
000000b0: 9cbf c33f 2e7b c93f c6c5 ee3e 0809 84bf
000000c0: 7809 efbe fbb5 0f40 8323 0b40 eaf8 d23f
000000d0: 9d9f 87be ea08 32bf c795 363f a2b5 0140
000000e0: 9028 9040 bf2a 8140 fa74 1240 59a3 7c40
000000f0: 7471 6e3e c263 e2be 9cd8 643e b2e7 cc3f

fc2.bias f4 [8]
2.327456 0.52170765 1.1769255 0.55145323 -0.3854475 1.6753712 0.1966975 0.36279956
00000000: 0af5 1440 a28e 053f 7fa5 963f 0a2c 0d3f
00000010: 6059 c5be 9072 d63f 126b 493e ddc0 b93e

fc3.weight f4 [4, 8]
-0.34744996 0.11038323 0.20546432 0.15347295 -0.17453393 0.23507097 -0.30320698 -0.2400179
1.9282806 -0.13967758 0.7723707 -4.2615924 -11.283695 0.958423 -0.3653713 -1.9360051
0.3404751 1.377881 0.51152784 -0.9600364 -2.5448263 0.1540735 1.6614907 -0.79092807
2.2623115 -2.895624 3.0818853 -1.4438261 -2.125855 2.575705 -2.804264 -6.0834484
00000000: f6e4 b1be 9a10 e23d 3d65 523e 0328 1d3e
00000010: 06b9 32be 72b6 703e f23d 9bbe 41c7 75be
00000020: e6d1 f63f a407 0fbe 16ba 453f f75e 88c0
00000030: 048a 34c1 365b 753f f211 bbbe 04cf f7bf
00000040: c152 ae3e 685e b03f 7df3 023f f2c4 75bf
00000050: 6fde 22c0 72c5 1d3e baab d43f 437a 4abf
00000060: b6c9 1040 e751 39c0 9c3d 4540 4bcf b8bf
00000070: 020e 08c0 5ad8 2440 1079 33c0 9cab c2c0

fc3.bias f4 [4]
-0.2373882 1.2468026 0.6893155 1.2393206
00000000: e415 73be 3a97 9f3f fb76 303f 0fa2 9e3f

fc4.weight f4 [2, 4]
-0.2101376 5.0122337 2.5936406 0.4894069 -0.4261719 -4.809688 0.41024154 4.749741
00000000: 502e 57be 3864 a040 35fe 2540 8b93 fa3e
00000010: 3433 dabe f7e8 99c0 2e0b d23e e1fd 9740

fc4.bias f4 [2]
-3.5562322 4.011648
00000000: 4f99 63c0 6c5f 8040
