saved_parameters.pt (torch, 3023 bytes, 8 tensors)

fc1.weight f4 [8, 4]
0.017656405 -0.7253129 -7.407115 -0.87125885 -1.0648481 0.34545755 5.8127494 0.8884617
-0.81200755 -1.831158 3.1171374 0.25914577 0.06695473 -0.79065263 -5.870382 -2.6822147
-0.68789846 0.4338949 5.2329335 1.0461404 -0.21514829 -1.5254266 -8.425584 -2.0403168
-3.4222455 -0.25313556 4.7609534 1.445851 0.91033983 -2.1815355 -10.292856 -2.3828511
00000000: 2aa4 903c 1bae 39bf 1607 edc0 d20a 5fbf
00000010: f14c 88bf d0df b03e 0b02 ba40 3a72 633f
00000020: badf 4fbf 6363 eabf 2e7f 4740 c1ae 843e
00000030: 901f 893d 3668 4abf 2bda bbc0 68a9 2bc0
00000040: 1d1a 30bf 7927 de3e 3174 a740 eee7 853f
00000050: d54f 5cbe 2e41 c3bf 31cf 06c1 8d94 02c0
00000060: 1206 5bc0 fc9a 81be bb59 9840 a511 b93f
00000070: 080c 693f 479e 0bc0 8aaf 24c1 a280 18c0

fc1.bias f4 [8]
2.1409092 2.3836381 3.1490886 5.146117 2.341552 3.2497041 -0.73844415 6.8097587
00000000: a804 0940 878d 1840 ab8a 4940 feac a440
00000010: fddb 1540 27fb 4f40 ad0a 3dbf 8be9 d940

fc2.weight f4 [8, 8]
-8.180295 3.7115529 2.4056692 -1.8757486 3.9845734 -4.3729167 3.783554 -0.8411126
0.18355538 -0.33714607 0.14524348 -0.3089398 0.067246184 -0.054412633 -0.25753453 -0.03633598
-0.3185933 -0.039235488 -0.31774363 -0.104136705 -0.3551597 -0.26255876 -0.12251288 0.24645863
2.6293507 -7.1077714 -3.2156956 0.6701284 -7.1874194 1.3634485 -0.5266988 0.8830951
5.1800632 3.723737 4.090571 4.6645384 3.7881405 4.5374727 -0.66564137 4.9298534
2.5821204 2.8062086 2.686285 3.8684475 3.0858626 3.151471 -0.8213676 3.0687582
2.2684004 -1.0615689 -0.03099413 1.0247318 -1.071594 1.4558717 -1.5163367 1.1722826
2.149609 -7.1289067 -0.392778 -0.049239445 -7.31898 1.2440594 2.9244885 0.56833464
00000000: 7de2 02c1 158a 6d40 7cf6 1940 8818 f0bf
00000010: 4003 7f40 efee 8bc0 c025 7240 2853 57bf
00000020: f1f5 3b3e 699e acbe b5ba 143e 5c2d 9ebe
00000030: 5eb8 893d c8df 5ebd 91db 83be 09d5 14bd
00000040: a91e a3be 64b5 20bd 4baf a2be a045 d5bd
00000050: 7ed7 b5be 1a6e 86be 08e8 fabd a75f 7c3e
00000060: 4847 2840 dd72 e3c0 f5cd 4dc0 898d 2b3f
00000070: 57ff e5c0 7b85 ae3f bcd5 06bf 8512 623f
00000080: 14c3 a540 b551 6e40 f5e5 8240 e643 9540
00000090: e570 7240 fa32 9140 7967 2abf 5cc1 9d40
000000a0: 7641 2540 ec98 3340 18ec 2b40 a594 7740
000000b0: c67e 4540 b3b1 4940 2645 52bf 8966 4440
000000c0: 792d 1140 7de1 87bf 67e7 fdbc 692a 833f
000000d0: fe29 89bf 015a ba3f 5217 c2bf 5b0d 963f
000000e0: 3293 0940 0120 e4c0 331a c9be 4daf 49bd
000000f0: 1635 eac0 573d 9f3f d22a 3b40 617e 113f

fc2.bias f4 [8]
2.4061997 -0.12361156 -0.32561114 -1.0500282 4.3657713 3.445226 0.59533775 -1.3169769
00000000: 2dff 1940 0f28 fdbd 81b6 a6be 5367 86bf
00000010: 66b4 8b40 957e 5c40 0e68 183f b392 a8bf

fc3.weight f4 [4, 8]
-2.8348534 0.10743813 0.028033588 17.745876 0.72547334 -0.05383202 2.2928188 7.8429623
-2.3743513 -0.11084414 0.21671191 -4.8697085 4.7020683 4.771392 -3.61026 -8.019015
7.4673653 -0.016882973 0.10764765 5.9607263 -0.5294017 -1.1927944 2.3753815 10.5639105
-0.23892066 0.05773351 0.279852 0.2798967 -0.1400342 -0.23771033 0.18732503 0.20934655
00000000: 3d6e 35c0 8608 dc3d b2a6 e53c 8ef7 8d41
00000010: 9fb8 393f f77e 5cbd 8bbd 1240 8cf9 fa40
00000020: 5ff5 17c0 4102 e3bd bae9 5d3e a7d4 9bc0
00000030: 5877 9640 3eaf 9840 800e 67c0 e34d 00c1
00000040: a8f4 ee40 294e 8abc 5f76 dc3d 45be be40
00000050: df86 07bf 7dad 98bf 4006 1840 c705 2941
00000060: 9ea7 74be f979 6c3d c348 8f3e 9f4e 8f3e
00000070: 2065 0fbe 566a 73be 22d2 3f3e f15e 563e

fc3.bias f4 [4]
0.5002718 3.981076 0.18975712 -0.088489436
00000000: d011 003f f3c9 7e40 b14f 423e f339 b5bd

fc4.weight f4 [2, 4]
-0.8958109 5.383904 -17.444153 0.0604132 -9.819559 6.7001886 -10.686548 0.28276417
00000000: dd53 65bf f148 ac40 a08d 8bc1 d573 773d
00000010: ea1c 1dc1 f267 d640 1afc 2ac1 77c6 903e

fc4.bias f4 [2]
3.5005639 3.153682
00000000: 3d09 6040 edd5 4940
