saved_model/saved_parameters.pt (torch, 3023 bytes, 8 tensors)

fc1.weight f4 [8, 4]
0.43372822 -0.1762557 -1.5930369 -0.19774783 0.59715134 0.11076386 -0.022128103 -0.09194789
0.4991529 -0.6272479 -1.3059915 -0.49757788 -1.2107579 0.7302643 6.1147985 1.4557407
1.4273847 -0.5505162 -5.2609186 -1.1933143 1.2516971 -0.6931563 -4.562744 -0.7531969
-0.31685823 0.1920271 0.5252081 0.07366488 -0.18361253 0.4261788 0.25717723 0.31519812
00000000: a011 de3e 607c 34be a2e8 cbbf 687e 4abe
00000010: e9de 183f 2ad8 e23d ff45 b5bc 2d4f bcbd
00000020: f890 ff3e 5293 20bf bb2a a7bf 87c2 febe
00000030: 1dfa 9abf 9af2 3a3f 6eac c340 b655 ba3f
00000040: 8bb4 b63f a1ee 0cbf 7259 a8c0 86be 98bf
00000050: 9c37 a03f b172 31bf 0002 92c0 83d1 40bf
00000060: 3e3b a2be c1a2 443e 0a74 063f 9ddd 963d
00000070: ec04 3cbe 1c34 da3e bcac 833e a661 a13e

fc1.bias f4 [8]
1.277116 -0.4946689 1.4165277 -1.5100827 -1.3558582 0.63431984 1.1482769 -0.4413615
00000000: 8978 a33f 3e45 fdbe c850 b53f 644a c1bf
00000010: c38c adbf c962 223f bdfa 923f 22fa e1be

fc2.weight f4 [8, 8]
1.3596932 0.40150955 1.7848663 -13.243371 5.0099087 0.0009929922 0.76541543 0.17244753
1.0675863 -0.11773925 1.2792661 -3.5302482 -3.8955948 -0.98359996 0.21784551 -0.24373749
1.1033458 0.26146778 0.8724282 -3.7329304 -3.4857564 -0.46690288 0.5516551 0.16326728
-0.025812209 -0.33839515 0.17899516 0.042280585 -0.14957504 -0.3368996 -0.19628099 -0.31677502
1.0680252 0.05031474 0.94302464 -3.8775651 -3.5333762 -0.83927447 0.8117443 -0.10711238
1.7910609 0.031421892 1.171898 -3.9413793 -5.178412 0.57411957 0.27152684 0.048142076
0.73989165 0.3088801 0.9840676 -6.4447165 -3.0138252 -0.3982551 0.58332086 0.21490762
-0.9305608 -0.2154812 -0.70155436 0.114532106 5.0368757 1.9456003 -2.2276487 -0.17476165
00000000: 6d0a ae3f a992 cd3e 8076 e43f d9e4 53c1
00000010: 2c51 a040 4a27 823a 44f2 433f 1696 303e
00000020: aba6 883f 4721 f1bd febe a33f 96ef 61c0
00000030: 6d51 79c0 35cd 7bbf e512 5f3e 5296 79be
00000040: 6f3a 8d3f 1bdf 853e 7457 5f3f 55e8 6ec0
00000050: a216 5fc0 e50d efbe 4539 0d3f 8a2f 273e
00000060: 2074 d3bc 2142 adbe 824a 373e 682e 2d3d
00000070: 332a 19be 1b7e acbe e2fd 48be 5630 a2be
00000080: 0db5 883f d416 4e3d 106a 713f 072a 78c0
00000090: d622 62c0 b1da 56bf 79ce 4f3f bc5d dbbd
000000a0: 7c41 e53f 3eb4 003d c100 963f 8f3f 7cc0
000000b0: 8db5 a5c0 80f9 123f 9105 8b3e a030 453d
000000c0: 8a69 3d3f 8825 9e3e dbeb 7b3f 1e3b cec0
000000d0: 83e2 40c0 18e8 cbbe 8454 153f be10 5c3e
000000e0: 3c39 6ebf 1ba7 5cbe 1199 33bf cf8f ea3d
000000f0: 162e a140 6e09 f93f cc91 0ec0 b8f4 32be

fc2.bias f4 [8]
2.3423994 0.8026048 0.9759144 -0.25021875 0.7767217 1.1061449 0.2749335 -0.85981584
00000000: dfe9 1540 8277 4d3f 87d5 793f ac1c 80be
00000010: 3cd7 463f 2896 8d3f 15c4 8c3e e41c 5cbf

fc3.weight f4 [4, 8]
-0.8702344 2.2427843 2.6617231 -0.1718971 2.8721452 0.6374254 2.6694481 -7.5267653
1.0966007 1.3863263 2.315416 -0.28392228 1.6630284 -1.0022093 3.0199056 -9.572139
-5.400051 4.535987 3.8021588 0.29097292 4.0222254 3.411417 1.7999295 -4.025087
0.5072803 -0.83895665 -0.11175878 -0.30984786 -0.66587615 0.2082409 -0.03987888 -1.2796705
00000000: aec7 5ebf c789 0f40 ac59 2a40 cb05 30be
00000010: 3ad1 3740 502e 233f 3dd8 2a40 43db f0c0
00000020: 695d 8c3f 2473 b13f c72f 1440 435e 91be
00000030: 1dde d43f 6548 80bf 2246 4140 7b27 19c1
00000040: 38cd acc0 ce26 9140 9256 7340 67fa 943e
00000050: 12b6 8040 a854 5a40 1764 e63f 83cd 80c0
00000060: 1fdd 013f ddc5 56bf cae1 e4bd 61a4 9ebe
00000070: dc76 2abf 1a3d 553e 0958 23bd 3ecc a3bf

fc3.bias f4 [4]
-0.18173103 -3.135899 0.2145103 0.30207446
00000000: b317 3abe 92b2 48c0 97a8 5b3e 81a9 9a3e

fc4.weight f4 [2, 4]
4.315063 6.0350833 -2.717845 0.2736705 2.4392264 -1.3817472 6.1865463 1.4673741
00000000: ff14 8a40 671f c140 2cf1 2dc0 8a1e 8c3e
00000010: 491c 1c40 18dd b0bf 30f8 c540 ead2 bb3f

fc4.bias f4 [2]
-0.38259888 -2.489399
00000000: 00e4 c3be 5052 1fc0
